…
        "plt.figure(figsize=(8, 5))\n",
        "plt.hist(input_tensor.flatten(), bins=10, edgecolor='black')\n",
        "plt.title(\"Distribution of Input Tensor Values\")\n",
        "plt.xlabel(\"Value\")\n",
        "plt.ylabel(\"Count\")\n",
        "plt.show()"
      ],
      "execution_count": 10,
      "outputs": [
        {
          "output_type": "stream",
          "name": "stdout",
          "text": [
            "python-chess not found. Installing...\n",
            "Model Architecture:\n",
            "ChessResNet(\n",
            "  (conv_input): Sequential(\n",
            "    (0): Conv2d(12, 128, kernel_size=(3, 3), stride=(1, 1), padding=(1, 1))\n",
            "    (1): BatchNorm2d(128, eps=1e-05, momentum=0.1, affine=True, track_running_stats=True)\n",
            "    (2): ReLU()\n",
            "  )\n",
            "  (res_blocks): ModuleList(\n",
            "    (0-4): 5 x ResBlock(\n",
            "      (conv1): Conv2d(128, 128, kernel_size=(3, 3), stride=(1, 1), padding=(1, 1))\n",
            "      (bn1): BatchNorm2d(128, eps=1e-05, momentum=0.1, affine=True, track_running_stats=True)\n",
            "      (conv2): Conv2d(128, 128, kernel_size=(3, 3), stride=(1, 1), padding=(1, 1))\n",
            "      (bn2): BatchNorm2d(128, eps=1e-05, momentum=0.1, affine=True, track_running_stats=True)\n",
            "    )\n",
            "  )\n",
            "  (policy_conv): Sequential(\n",
            "    (0): Conv2d(128, 2, kernel_size=(1, 1), stride=(1, 1))\n",
            "    (1): BatchNorm2d(2, eps=1e-05, momentum=0.1, affine=True, track_running_stats=True)\n",
            "    (2): ReLU()\n",
            "  )\n",
            "  (policy_fc): Linear(in_features=128, out_features=4672, bias=True)\n",
            "  (value_conv): Sequential(\n",
            "    (0): Conv2d(128, 1, kernel_size=(1, 1), stride=(1, 1))\n",
            "    (1): BatchNorm2d(1, eps=1e-05, momentum=0.1, affine=True, track_running_stats=True)\n",
            "    (2): ReLU()\n",
            "  )\n",
            "  (value_fc): Sequential(\n",
            "    (0): Linear(in_features=64, out_features=256, bias=True)\n",
            "    (1): ReLU()\n",
            "    (2): Linear(in_features=256, out_features=1, bias=True)\n",
            "    (3): Tanh()\n",
            "  )\n",
            ")\n",
            "\n",
            "Input Tensor Shape: (12, 8, 8)\n"
          ]
        },
        {
          "output_type": "display_data",
          "data": {
            "text/plain": [
              "<Figure size 800x500 with 1 Axes>"
            ],
            "image/png": "…\n"
…
